{"config": {"layers": [{"config": {"dtype": "float32", "batch_input_shape": [null, 48, 48, 1], "sparse": false, "name": "input_1"}, "class_name": "InputLayer", "name": "input_1", "inbound_nodes": []}, {"config": {"dilation_rate": [1, 1], "filters": 8, "name": "conv2d_1", "padding": "valid", "kernel_regularizer": {"config": {"l1": 0.0, "l2": 0.009999999776482582}, "class_name": "L1L2"}, "trainable": true, "activation": "linear", "use_bias": false, "kernel_constraint": null, "activity_regularizer": null, "bias_constraint": null, "strides": [1, 1], "bias_initializer": {"config": {}, "class_name": "Zeros"}, "kernel_initializer": {"config": {"mode": "fan_avg", "seed": null, "distribution": "uniform", "scale": 1.0}, "class_name": "VarianceScaling"}, "bias_regularizer": null, "data_format": "channels_last", "kernel_size": [3, 3]}, "class_name": "Conv2D", "name": "conv2d_1", "inbound_nodes": [[["input_1", 0, 0, {}]]]}, {"config": {"beta_initializer": {"config": {}, "class_name": "Zeros"}, "scale": true, "name": "batch_normalization_1", "moving_variance_initializer": {"config": {}, "class_name": "Ones"}, "momentum": 0.99, "trainable": true, "beta_constraint": null, "epsilon": 0.001, "beta_regularizer": null, "gamma_constraint": null, "moving_mean_initializer": {"config": {}, "class_name": "Zeros"}, "gamma_regularizer": null, "center": true, "axis": -1, "gamma_initializer": {"config": {}, "class_name": "Ones"}}, "class_name": "BatchNormalization", "name": "batch_normalization_1", "inbound_nodes": [[["conv2d_1", 0, 0, {}]]]}, {"config": {"trainable": true, "activation": "relu", "name": "activation_1"}, "class_name": "Activation", "name": "activation_1", "inbound_nodes": [[["batch_normalization_1", 0, 0, {}]]]}, {"config": {"dilation_rate": [1, 1], "filters": 8, "name": "conv2d_2", "padding": "valid", "kernel_regularizer": {"config": {"l1": 0.0, "l2": 0.009999999776482582}, "class_name": "L1L2"}, "trainable": true, "activation": "linear", "use_bias": false, "kernel_constraint": null, "activity_regularizer": null, "bias_constraint": null, "strides": [1, 1], "bias_initializer": {"config": {}, "class_name": "Zeros"}, "kernel_initializer": {"config": {"mode": "fan_avg", "seed": null, "distribution": "uniform", "scale": 1.0}, "class_name": "VarianceScaling"}, "bias_regularizer": null, "data_format": "channels_last", "kernel_size": [3, 3]}, "class_name": "Conv2D", "name": "conv2d_2", "inbound_nodes": [[["activation_1", 0, 0, {}]]]}, {"config": {"beta_initializer": {"config": {}, "class_name": "Zeros"}, "scale": true, "name": "batch_normalization_2", "moving_variance_initializer": {"config": {}, "class_name": "Ones"}, "momentum": 0.99, "trainable": true, "beta_constraint": null, "epsilon": 0.001, "beta_regularizer": null, "gamma_constraint": null, "moving_mean_initializer": {"config": {}, "class_name": "Zeros"}, "gamma_regularizer": null, "center": true, "axis": -1, "gamma_initializer": {"config": {}, "class_name": "Ones"}}, "class_name": "BatchNormalization", "name": "batch_normalization_2", "inbound_nodes": [[["conv2d_2", 0, 0, {}]]]}, {"config": {"trainable": true, "activation": "relu", "name": "activation_2"}, "class_name": "Activation", "name": "activation_2", "inbound_nodes": [[["batch_normalization_2", 0, 0, {}]]]}, {"config": {"use_bias": false, "filters": 16, "activation": "linear", "pointwise_initializer": {"config": {"mode": "fan_avg", "seed": null, "distribution": "uniform", "scale": 1.0}, "class_name": "VarianceScaling"}, "name": "separable_conv2d_1", "padding": "same", "pointwise_constraint": null, "trainable": true, "strides": [1, 1], "depthwise_constraint": null, "data_format": "channels_last", "depthwise_initializer": {"config": {"mode": "fan_avg", "seed": null, "distribution": "uniform", "scale": 1.0}, "class_name": "VarianceScaling"}, "activity_regularizer": null, "bias_constraint": null, "depthwise_regularizer": null, "bias_initializer": {"config": {}, "class_name": "Zeros"}, "bias_regularizer": null, "dilation_rate": [1, 1], "depth_multiplier": 1, "pointwise_regularizer": null, "kernel_size": [3, 3]}, "class_name": "SeparableConv2D", "name": "separable_conv2d_1", "inbound_nodes": [[["activation_2", 0, 0, {}]]]}, {"config": {"beta_initializer": {"config": {}, "class_name": "Zeros"}, "scale": true, "name": "batch_normalization_4", "moving_variance_initializer": {"config": {}, "class_name": "Ones"}, "momentum": 0.99, "trainable": true, "beta_constraint": null, "epsilon": 0.001, "beta_regularizer": null, "gamma_constraint": null, "moving_mean_initializer": {"config": {}, "class_name": "Zeros"}, "gamma_regularizer": null, "center": true, "axis": -1, "gamma_initializer": {"config": {}, "class_name": "Ones"}}, "class_name": "BatchNormalization", "name": "batch_normalization_4", "inbound_nodes": [[["separable_conv2d_1", 0, 0, {}]]]}, {"config": {"trainable": true, "activation": "relu", "name": "activation_3"}, "class_name": "Activation", "name": "activation_3", "inbound_nodes": [[["batch_normalization_4", 0, 0, {}]]]}, {"config": {"use_bias": false, "filters": 16, "activation": "linear", "pointwise_initializer": {"config": {"mode": "fan_avg", "seed": null, "distribution": "uniform", "scale": 1.0}, "class_name": "VarianceScaling"}, "name": "separable_conv2d_2", "padding": "same", "pointwise_constraint": null, "trainable": true, "strides": [1, 1], "depthwise_constraint": null, "data_format": "channels_last", "depthwise_initializer": {"config": {"mode": "fan_avg", "seed": null, "distribution": "uniform", "scale": 1.0}, "class_name": "VarianceScaling"}, "activity_regularizer": null, "bias_constraint": null, "depthwise_regularizer": null, "bias_initializer": {"config": {}, "class_name": "Zeros"}, "bias_regularizer": null, "dilation_rate": [1, 1], "depth_multiplier": 1, "pointwise_regularizer": null, "kernel_size": [3, 3]}, "class_name": "SeparableConv2D", "name": "separable_conv2d_2", "inbound_nodes": [[["activation_3", 0, 0, {}]]]}, {"config": {"beta_initializer": {"config": {}, "class_name": "Zeros"}, "scale": true, "name": "batch_normalization_5", "moving_variance_initializer": {"config": {}, "class_name": "Ones"}, "momentum": 0.99, "trainable": true, "beta_constraint": null, "epsilon": 0.001, "beta_regularizer": null, "gamma_constraint": null, "moving_mean_initializer": {"config": {}, "class_name": "Zeros"}, "gamma_regularizer": null, "center": true, "axis": -1, "gamma_initializer": {"config": {}, "class_name": "Ones"}}, "class_name": "BatchNormalization", "name": "batch_normalization_5", "inbound_nodes": [[["separable_conv2d_2", 0, 0, {}]]]}, {"config": {"dilation_rate": [1, 1], "filters": 16, "name": "conv2d_3", "padding": "same", "kernel_regularizer": null, "trainable": true, "activation": "linear", "use_bias": false, "kernel_constraint": null, "activity_regularizer": null, "bias_constraint": null, "strides": [2, 2], "bias_initializer": {"config": {}, "class_name": "Zeros"}, "kernel_initializer": {"config": {"mode": "fan_avg", "seed": null, "distribution": "uniform", "scale": 1.0}, "class_name": "VarianceScaling"}, "bias_regularizer": null, "data_format": "channels_last", "kernel_size": [1, 1]}, "class_name": "Conv2D", "name": "conv2d_3", "inbound_nodes": [[["activation_2", 0, 0, {}]]]}, {"config": {"data_format": "channels_last", "name": "max_pooling2d_1", "padding": "same", "pool_size": [3, 3], "trainable": true, "strides": [2, 2]}, "class_name": "MaxPooling2D", "name": "max_pooling2d_1", "inbound_nodes": [[["batch_normalization_5", 0, 0, {}]]]}, {"config": {"beta_initializer": {"config": {}, "class_name": "Zeros"}, "scale": true, "name": "batch_normalization_3", "moving_variance_initializer": {"config": {}, "class_name": "Ones"}, "momentum": 0.99, "trainable": true, "beta_constraint": null, "epsilon": 0.001, "beta_regularizer": null, "gamma_constraint": null, "moving_mean_initializer": {"config": {}, "class_name": "Zeros"}, "gamma_regularizer": null, "center": true, "axis": -1, "gamma_initializer": {"config": {}, "class_name": "Ones"}}, "class_name": "BatchNormalization", "name": "batch_normalization_3", "inbound_nodes": [[["conv2d_3", 0, 0, {}]]]}, {"config": {"trainable": true, "name": "add_1"}, "class_name": "Add", "name": "add_1", "inbound_nodes": [[["max_pooling2d_1", 0, 0, {}], ["batch_normalization_3", 0, 0, {}]]]}, {"config": {"use_bias": false, "filters": 32, "activation": "linear", "pointwise_initializer": {"config": {"mode": "fan_avg", "seed": null, "distribution": "uniform", "scale": 1.0}, "class_name": "VarianceScaling"}, "name": "separable_conv2d_3", "padding": "same", "pointwise_constraint": null, "trainable": true, "strides": [1, 1], "depthwise_constraint": null, "data_format": "channels_last", "depthwise_initializer": {"config": {"mode": "fan_avg", "seed": null, "distribution": "uniform", "scale": 1.0}, "class_name": "VarianceScaling"}, "activity_regularizer": null, "bias_constraint": null, "depthwise_regularizer": null, "bias_initializer": {"config": {}, "class_name": "Zeros"}, "bias_regularizer": null, "dilation_rate": [1, 1], "depth_multiplier": 1, "pointwise_regularizer": null, "kernel_size": [3, 3]}, "class_name": "SeparableConv2D", "name": "separable_conv2d_3", "inbound_nodes": [[["add_1", 0, 0, {}]]]}, {"config": {"beta_initializer": {"config": {}, "class_name": "Zeros"}, "scale": true, "name": "batch_normalization_7", "moving_variance_initializer": {"config": {}, "class_name": "Ones"}, "momentum": 0.99, "trainable": true, "beta_constraint": null, "epsilon": 0.001, "beta_regularizer": null, "gamma_constraint": null, "moving_mean_initializer": {"config": {}, "class_name": "Zeros"}, "gamma_regularizer": null, "center": true, "axis": -1, "gamma_initializer": {"config": {}, "class_name": "Ones"}}, "class_name": "BatchNormalization", "name": "batch_normalization_7", "inbound_nodes": [[["separable_conv2d_3", 0, 0, {}]]]}, {"config": {"trainable": true, "activation": "relu", "name": "activation_4"}, "class_name": "Activation", "name": "activation_4", "inbound_nodes": [[["batch_normalization_7", 0, 0, {}]]]}, {"config": {"use_bias": false, "filters": 32, "activation": "linear", "pointwise_initializer": {"config": {"mode": "fan_avg", "seed": null, "distribution": "uniform", "scale": 1.0}, "class_name": "VarianceScaling"}, "name": "separable_conv2d_4", "padding": "same", "pointwise_constraint": null, "trainable": true, "strides": [1, 1], "depthwise_constraint": null, "data_format": "channels_last", "depthwise_initializer": {"config": {"mode": "fan_avg", "seed": null, "distribution": "uniform", "scale": 1.0}, "class_name": "VarianceScaling"}, "activity_regularizer": null, "bias_constraint": null, "depthwise_regularizer": null, "bias_initializer": {"config": {}, "class_name": "Zeros"}, "bias_regularizer": null, "dilation_rate": [1, 1], "depth_multiplier": 1, "pointwise_regularizer": null, "kernel_size": [3, 3]}, "class_name": "SeparableConv2D", "name": "separable_conv2d_4", "inbound_nodes": [[["activation_4", 0, 0, {}]]]}, {"config": {"beta_initializer": {"config": {}, "class_name": "Zeros"}, "scale": true, "name": "batch_normalization_8", "moving_variance_initializer": {"config": {}, "class_name": "Ones"}, "momentum": 0.99, "trainable": true, "beta_constraint": null, "epsilon": 0.001, "beta_regularizer": null, "gamma_constraint": null, "moving_mean_initializer": {"config": {}, "class_name": "Zeros"}, "gamma_regularizer": null, "center": true, "axis": -1, "gamma_initializer": {"config": {}, "class_name": "Ones"}}, "class_name": "BatchNormalization", "name": "batch_normalization_8", "inbound_nodes": [[["separable_conv2d_4", 0, 0, {}]]]}, {"config": {"dilation_rate": [1, 1], "filters": 32, "name": "conv2d_4", "padding": "same", "kernel_regularizer": null, "trainable": true, "activation": "linear", "use_bias": false, "kernel_constraint": null, "activity_regularizer": null, "bias_constraint": null, "strides": [2, 2], "bias_initializer": {"config": {}, "class_name": "Zeros"}, "kernel_initializer": {"config": {"mode": "fan_avg", "seed": null, "distribution": "uniform", "scale": 1.0}, "class_name": "VarianceScaling"}, "bias_regularizer": null, "data_format": "channels_last", "kernel_size": [1, 1]}, "class_name": "Conv2D", "name": "conv2d_4", "inbound_nodes": [[["add_1", 0, 0, {}]]]}, {"config": {"data_format": "channels_last", "name": "max_pooling2d_2", "padding": "same", "pool_size": [3, 3], "trainable": true, "strides": [2, 2]}, "class_name": "MaxPooling2D", "name": "max_pooling2d_2", "inbound_nodes": [[["batch_normalization_8", 0, 0, {}]]]}, {"config": {"beta_initializer": {"config": {}, "class_name": "Zeros"}, "scale": true, "name": "batch_normalization_6", "moving_variance_initializer": {"config": {}, "class_name": "Ones"}, "momentum": 0.99, "trainable": true, "beta_constraint": null, "epsilon": 0.001, "beta_regularizer": null, "gamma_constraint": null, "moving_mean_initializer": {"config": {}, "class_name": "Zeros"}, "gamma_regularizer": null, "center": true, "axis": -1, "gamma_initializer": {"config": {}, "class_name": "Ones"}}, "class_name": "BatchNormalization", "name": "batch_normalization_6", "inbound_nodes": [[["conv2d_4", 0, 0, {}]]]}, {"config": {"trainable": true, "name": "add_2"}, "class_name": "Add", "name": "add_2", "inbound_nodes": [[["max_pooling2d_2", 0, 0, {}], ["batch_normalization_6", 0, 0, {}]]]}, {"config": {"use_bias": false, "filters": 64, "activation": "linear", "pointwise_initializer": {"config": {"mode": "fan_avg", "seed": null, "distribution": "uniform", "scale": 1.0}, "class_name": "VarianceScaling"}, "name": "separable_conv2d_5", "padding": "same", "pointwise_constraint": null, "trainable": true, "strides": [1, 1], "depthwise_constraint": null, "data_format": "channels_last", "depthwise_initializer": {"config": {"mode": "fan_avg", "seed": null, "distribution": "uniform", "scale": 1.0}, "class_name": "VarianceScaling"}, "activity_regularizer": null, "bias_constraint": null, "depthwise_regularizer": null, "bias_initializer": {"config": {}, "class_name": "Zeros"}, "bias_regularizer": null, "dilation_rate": [1, 1], "depth_multiplier": 1, "pointwise_regularizer": null, "kernel_size": [3, 3]}, "class_name": "SeparableConv2D", "name": "separable_conv2d_5", "inbound_nodes": [[["add_2", 0, 0, {}]]]}, {"config": {"beta_initializer": {"config": {}, "class_name": "Zeros"}, "scale": true, "name": "batch_normalization_10", "moving_variance_initializer": {"config": {}, "class_name": "Ones"}, "momentum": 0.99, "trainable": true, "beta_constraint": null, "epsilon": 0.001, "beta_regularizer": null, "gamma_constraint": null, "moving_mean_initializer": {"config": {}, "class_name": "Zeros"}, "gamma_regularizer": null, "center": true, "axis": -1, "gamma_initializer": {"config": {}, "class_name": "Ones"}}, "class_name": "BatchNormalization", "name": "batch_normalization_10", "inbound_nodes": [[["separable_conv2d_5", 0, 0, {}]]]}, {"config": {"trainable": true, "activation": "relu", "name": "activation_5"}, "class_name": "Activation", "name": "activation_5", "inbound_nodes": [[["batch_normalization_10", 0, 0, {}]]]}, {"config": {"use_bias": false, "filters": 64, "activation": "linear", "pointwise_initializer": {"config": {"mode": "fan_avg", "seed": null, "distribution": "uniform", "scale": 1.0}, "class_name": "VarianceScaling"}, "name": "separable_conv2d_6", "padding": "same", "pointwise_constraint": null, "trainable": true, "strides": [1, 1], "depthwise_constraint": null, "data_format": "channels_last", "depthwise_initializer": {"config": {"mode": "fan_avg", "seed": null, "distribution": "uniform", "scale": 1.0}, "class_name": "VarianceScaling"}, "activity_regularizer": null, "bias_constraint": null, "depthwise_regularizer": null, "bias_initializer": {"config": {}, "class_name": "Zeros"}, "bias_regularizer": null, "dilation_rate": [1, 1], "depth_multiplier": 1, "pointwise_regularizer": null, "kernel_size": [3, 3]}, "class_name": "SeparableConv2D", "name": "separable_conv2d_6", "inbound_nodes": [[["activation_5", 0, 0, {}]]]}, {"config": {"beta_initializer": {"config": {}, "class_name": "Zeros"}, "scale": true, "name": "batch_normalization_11", "moving_variance_initializer": {"config": {}, "class_name": "Ones"}, "momentum": 0.99, "trainable": true, "beta_constraint": null, "epsilon": 0.001, "beta_regularizer": null, "gamma_constraint": null, "moving_mean_initializer": {"config": {}, "class_name": "Zeros"}, "gamma_regularizer": null, "center": true, "axis": -1, "gamma_initializer": {"config": {}, "class_name": "Ones"}}, "class_name": "BatchNormalization", "name": "batch_normalization_11", "inbound_nodes": [[["separable_conv2d_6", 0, 0, {}]]]}, {"config": {"dilation_rate": [1, 1], "filters": 64, "name": "conv2d_5", "padding": "same", "kernel_regularizer": null, "trainable": true, "activation": "linear", "use_bias": false, "kernel_constraint": null, "activity_regularizer": null, "bias_constraint": null, "strides": [2, 2], "bias_initializer": {"config": {}, "class_name": "Zeros"}, "kernel_initializer": {"config": {"mode": "fan_avg", "seed": null, "distribution": "uniform", "scale": 1.0}, "class_name": "VarianceScaling"}, "bias_regularizer": null, "data_format": "channels_last", "kernel_size": [1, 1]}, "class_name": "Conv2D", "name": "conv2d_5", "inbound_nodes": [[["add_2", 0, 0, {}]]]}, {"config": {"data_format": "channels_last", "name": "max_pooling2d_3", "padding": "same", "pool_size": [3, 3], "trainable": true, "strides": [2, 2]}, "class_name": "MaxPooling2D", "name": "max_pooling2d_3", "inbound_nodes": [[["batch_normalization_11", 0, 0, {}]]]}, {"config": {"beta_initializer": {"config": {}, "class_name": "Zeros"}, "scale": true, "name": "batch_normalization_9", "moving_variance_initializer": {"config": {}, "class_name": "Ones"}, "momentum": 0.99, "trainable": true, "beta_constraint": null, "epsilon": 0.001, "beta_regularizer": null, "gamma_constraint": null, "moving_mean_initializer": {"config": {}, "class_name": "Zeros"}, "gamma_regularizer": null, "center": true, "axis": -1, "gamma_initializer": {"config": {}, "class_name": "Ones"}}, "class_name": "BatchNormalization", "name": "batch_normalization_9", "inbound_nodes": [[["conv2d_5", 0, 0, {}]]]}, {"config": {"trainable": true, "name": "add_3"}, "class_name": "Add", "name": "add_3", "inbound_nodes": [[["max_pooling2d_3", 0, 0, {}], ["batch_normalization_9", 0, 0, {}]]]}, {"config": {"use_bias": false, "filters": 128, "activation": "linear", "pointwise_initializer": {"config": {"mode": "fan_avg", "seed": null, "distribution": "uniform", "scale": 1.0}, "class_name": "VarianceScaling"}, "name": "separable_conv2d_7", "padding": "same", "pointwise_constraint": null, "trainable": true, "strides": [1, 1], "depthwise_constraint": null, "data_format": "channels_last", "depthwise_initializer": {"config": {"mode": "fan_avg", "seed": null, "distribution": "uniform", "scale": 1.0}, "class_name": "VarianceScaling"}, "activity_regularizer": null, "bias_constraint": null, "depthwise_regularizer": null, "bias_initializer": {"config": {}, "class_name": "Zeros"}, "bias_regularizer": null, "dilation_rate": [1, 1], "depth_multiplier": 1, "pointwise_regularizer": null, "kernel_size": [3, 3]}, "class_name": "SeparableConv2D", "name": "separable_conv2d_7", "inbound_nodes": [[["add_3", 0, 0, {}]]]}, {"config": {"beta_initializer": {"config": {}, "class_name": "Zeros"}, "scale": true, "name": "batch_normalization_13", "moving_variance_initializer": {"config": {}, "class_name": "Ones"}, "momentum": 0.99, "trainable": true, "beta_constraint": null, "epsilon": 0.001, "beta_regularizer": null, "gamma_constraint": null, "moving_mean_initializer": {"config": {}, "class_name": "Zeros"}, "gamma_regularizer": null, "center": true, "axis": -1, "gamma_initializer": {"config": {}, "class_name": "Ones"}}, "class_name": "BatchNormalization", "name": "batch_normalization_13", "inbound_nodes": [[["separable_conv2d_7", 0, 0, {}]]]}, {"config": {"trainable": true, "activation": "relu", "name": "activation_6"}, "class_name": "Activation", "name": "activation_6", "inbound_nodes": [[["batch_normalization_13", 0, 0, {}]]]}, {"config": {"use_bias": false, "filters": 128, "activation": "linear", "pointwise_initializer": {"config": {"mode": "fan_avg", "seed": null, "distribution": "uniform", "scale": 1.0}, "class_name": "VarianceScaling"}, "name": "separable_conv2d_8", "padding": "same", "pointwise_constraint": null, "trainable": true, "strides": [1, 1], "depthwise_constraint": null, "data_format": "channels_last", "depthwise_initializer": {"config": {"mode": "fan_avg", "seed": null, "distribution": "uniform", "scale": 1.0}, "class_name": "VarianceScaling"}, "activity_regularizer": null, "bias_constraint": null, "depthwise_regularizer": null, "bias_initializer": {"config": {}, "class_name": "Zeros"}, "bias_regularizer": null, "dilation_rate": [1, 1], "depth_multiplier": 1, "pointwise_regularizer": null, "kernel_size": [3, 3]}, "class_name": "SeparableConv2D", "name": "separable_conv2d_8", "inbound_nodes": [[["activation_6", 0, 0, {}]]]}, {"config": {"beta_initializer": {"config": {}, "class_name": "Zeros"}, "scale": true, "name": "batch_normalization_14", "moving_variance_initializer": {"config": {}, "class_name": "Ones"}, "momentum": 0.99, "trainable": true, "beta_constraint": null, "epsilon": 0.001, "beta_regularizer": null, "gamma_constraint": null, "moving_mean_initializer": {"config": {}, "class_name": "Zeros"}, "gamma_regularizer": null, "center": true, "axis": -1, "gamma_initializer": {"config": {}, "class_name": "Ones"}}, "class_name": "BatchNormalization", "name": "batch_normalization_14", "inbound_nodes": [[["separable_conv2d_8", 0, 0, {}]]]}, {"config": {"dilation_rate": [1, 1], "filters": 128, "name": "conv2d_6", "padding": "same", "kernel_regularizer": null, "trainable": true, "activation": "linear", "use_bias": false, "kernel_constraint": null, "activity_regularizer": null, "bias_constraint": null, "strides": [2, 2], "bias_initializer": {"config": {}, "class_name": "Zeros"}, "kernel_initializer": {"config": {"mode": "fan_avg", "seed": null, "distribution": "uniform", "scale": 1.0}, "class_name": "VarianceScaling"}, "bias_regularizer": null, "data_format": "channels_last", "kernel_size": [1, 1]}, "class_name": "Conv2D", "name": "conv2d_6", "inbound_nodes": [[["add_3", 0, 0, {}]]]}, {"config": {"data_format": "channels_last", "name": "max_pooling2d_4", "padding": "same", "pool_size": [3, 3], "trainable": true, "strides": [2, 2]}, "class_name": "MaxPooling2D", "name": "max_pooling2d_4", "inbound_nodes": [[["batch_normalization_14", 0, 0, {}]]]}, {"config": {"beta_initializer": {"config": {}, "class_name": "Zeros"}, "scale": true, "name": "batch_normalization_12", "moving_variance_initializer": {"config": {}, "class_name": "Ones"}, "momentum": 0.99, "trainable": true, "beta_constraint": null, "epsilon": 0.001, "beta_regularizer": null, "gamma_constraint": null, "moving_mean_initializer": {"config": {}, "class_name": "Zeros"}, "gamma_regularizer": null, "center": true, "axis": -1, "gamma_initializer": {"config": {}, "class_name": "Ones"}}, "class_name": "BatchNormalization", "name": "batch_normalization_12", "inbound_nodes": [[["conv2d_6", 0, 0, {}]]]}, {"config": {"trainable": true, "name": "add_4"}, "class_name": "Add", "name": "add_4", "inbound_nodes": [[["max_pooling2d_4", 0, 0, {}], ["batch_normalization_12", 0, 0, {}]]]}, {"config": {"dilation_rate": [1, 1], "filters": 7, "name": "conv2d_7", "padding": "same", "kernel_regularizer": null, "trainable": true, "activation": "linear", "use_bias": true, "kernel_constraint": null, "activity_regularizer": null, "bias_constraint": null, "strides": [1, 1], "bias_initializer": {"config": {}, "class_name": "Zeros"}, "kernel_initializer": {"config": {"mode": "fan_avg", "seed": null, "distribution": "uniform", "scale": 1.0}, "class_name": "VarianceScaling"}, "bias_regularizer": null, "data_format": "channels_last", "kernel_size": [3, 3]}, "class_name": "Conv2D", "name": "conv2d_7", "inbound_nodes": [[["add_4", 0, 0, {}]]]}, {"config": {"trainable": true, "name": "global_average_pooling2d_1", "data_format": "channels_last"}, "class_name": "GlobalAveragePooling2D", "name": "global_average_pooling2d_1", "inbound_nodes": [[["conv2d_7", 0, 0, {}]]]}, {"config": {"trainable": true, "activation": "softmax", "name": "predictions"}, "class_name": "Activation", "name": "predictions", "inbound_nodes": [[["global_average_pooling2d_1", 0, 0, {}]]]}], "output_layers": [["predictions", 0, 0]], "input_layers": [["input_1", 0, 0]], "name": "model_1"}, "backend": "tensorflow", "class_name": "Model", "keras_version": "2.1.3"}