{"config": {"name": "model_1", "layers": [{"config": {"sparse": false, "name": "input_1", "dtype": "float32", "batch_input_shape": [null, 48, 48, 1]}, "class_name": "InputLayer", "name": "input_1", "inbound_nodes": []}, {"config": {"padding": "valid", "data_format": "channels_last", "trainable": true, "use_bias": false, "filters": 8, "bias_regularizer": null, "strides": [1, 1], "kernel_size": [3, 3], "bias_constraint": null, "name": "conv2d_1", "activity_regularizer": null, "dilation_rate": [1, 1], "bias_initializer": {"config": {}, "class_name": "Zeros"}, "activation": "linear", "kernel_initializer": {"config": {"seed": null, "scale": 1.0, "mode": "fan_avg", "distribution": "uniform"}, "class_name": "VarianceScaling"}, "kernel_constraint": null, "kernel_regularizer": {"config": {"l1": 0.0, "l2": 0.009999999776482582}, "class_name": "L1L2"}}, "class_name": "Conv2D", "name": "conv2d_1", "inbound_nodes": [[["input_1", 0, 0, {}]]]}, {"config": {"trainable": true, "beta_constraint": null, "center": true, "moving_mean_initializer": {"config": {}, "class_name": "Zeros"}, "gamma_initializer": {"config": {}, "class_name": "Ones"}, "momentum": 0.99, "scale": true, "gamma_constraint": null, "axis": -1, "name": "batch_normalization_1", "gamma_regularizer": null, "moving_variance_initializer": {"config": {}, "class_name": "Ones"}, "beta_regularizer": null, "beta_initializer": {"config": {}, "class_name": "Zeros"}, "epsilon": 0.001}, "class_name": "BatchNormalization", "name": "batch_normalization_1", "inbound_nodes": [[["conv2d_1", 0, 0, {}]]]}, {"config": {"name": "activation_1", "activation": "relu", "trainable": true}, "class_name": "Activation", "name": "activation_1", "inbound_nodes": [[["batch_normalization_1", 0, 0, {}]]]}, {"config": {"padding": "valid", "data_format": "channels_last", "trainable": true, "use_bias": false, "filters": 8, "bias_regularizer": null, "strides": [1, 1], "kernel_size": [3, 3], "bias_constraint": null, "name": "conv2d_2", "activity_regularizer": null, "dilation_rate": [1, 1], "bias_initializer": {"config": {}, "class_name": "Zeros"}, "activation": "linear", "kernel_initializer": {"config": {"seed": null, "scale": 1.0, "mode": "fan_avg", "distribution": "uniform"}, "class_name": "VarianceScaling"}, "kernel_constraint": null, "kernel_regularizer": {"config": {"l1": 0.0, "l2": 0.009999999776482582}, "class_name": "L1L2"}}, "class_name": "Conv2D", "name": "conv2d_2", "inbound_nodes": [[["activation_1", 0, 0, {}]]]}, {"config": {"trainable": true, "beta_constraint": null, "center": true, "moving_mean_initializer": {"config": {}, "class_name": "Zeros"}, "gamma_initializer": {"config": {}, "class_name": "Ones"}, "momentum": 0.99, "scale": true, "gamma_constraint": null, "axis": -1, "name": "batch_normalization_2", "gamma_regularizer": null, "moving_variance_initializer": {"config": {}, "class_name": "Ones"}, "beta_regularizer": null, "beta_initializer": {"config": {}, "class_name": "Zeros"}, "epsilon": 0.001}, "class_name": "BatchNormalization", "name": "batch_normalization_2", "inbound_nodes": [[["conv2d_2", 0, 0, {}]]]}, {"config": {"name": "activation_2", "activation": "relu", "trainable": true}, "class_name": "Activation", "name": "activation_2", "inbound_nodes": [[["batch_normalization_2", 0, 0, {}]]]}, {"config": {"strides": [1, 1], "use_bias": false, "data_format": "channels_last", "trainable": true, "padding": "same", "filters": 16, "bias_regularizer": null, "activity_regularizer": null, "pointwise_regularizer": null, "kernel_size": [3, 3], "bias_constraint": null, "activation": "linear", "depthwise_constraint": null, "depthwise_regularizer": null, "dilation_rate": [1, 1], "bias_initializer": {"config": {}, "class_name": "Zeros"}, "name": "separable_conv2d_1", "depthwise_initializer": {"config": {"seed": null, "scale": 1.0, "mode": "fan_avg", "distribution": "uniform"}, "class_name": "VarianceScaling"}, "pointwise_constraint": null, "depth_multiplier": 1, "pointwise_initializer": {"config": {"seed": null, "scale": 1.0, "mode": "fan_avg", "distribution": "uniform"}, "class_name": "VarianceScaling"}}, "class_name": "SeparableConv2D", "name": "separable_conv2d_1", "inbound_nodes": [[["activation_2", 0, 0, {}]]]}, {"config": {"trainable": true, "beta_constraint": null, "center": true, "moving_mean_initializer": {"config": {}, "class_name": "Zeros"}, "gamma_initializer": {"config": {}, "class_name": "Ones"}, "momentum": 0.99, "scale": true, "gamma_constraint": null, "axis": -1, "name": "batch_normalization_4", "gamma_regularizer": null, "moving_variance_initializer": {"config": {}, "class_name": "Ones"}, "beta_regularizer": null, "beta_initializer": {"config": {}, "class_name": "Zeros"}, "epsilon": 0.001}, "class_name": "BatchNormalization", "name": "batch_normalization_4", "inbound_nodes": [[["separable_conv2d_1", 0, 0, {}]]]}, {"config": {"name": "activation_3", "activation": "relu", "trainable": true}, "class_name": "Activation", "name": "activation_3", "inbound_nodes": [[["batch_normalization_4", 0, 0, {}]]]}, {"config": {"strides": [1, 1], "use_bias": false, "data_format": "channels_last", "trainable": true, "padding": "same", "filters": 16, "bias_regularizer": null, "activity_regularizer": null, "pointwise_regularizer": null, "kernel_size": [3, 3], "bias_constraint": null, "activation": "linear", "depthwise_constraint": null, "depthwise_regularizer": null, "dilation_rate": [1, 1], "bias_initializer": {"config": {}, "class_name": "Zeros"}, "name": "separable_conv2d_2", "depthwise_initializer": {"config": {"seed": null, "scale": 1.0, "mode": "fan_avg", "distribution": "uniform"}, "class_name": "VarianceScaling"}, "pointwise_constraint": null, "depth_multiplier": 1, "pointwise_initializer": {"config": {"seed": null, "scale": 1.0, "mode": "fan_avg", "distribution": "uniform"}, "class_name": "VarianceScaling"}}, "class_name": "SeparableConv2D", "name": "separable_conv2d_2", "inbound_nodes": [[["activation_3", 0, 0, {}]]]}, {"config": {"trainable": true, "beta_constraint": null, "center": true, "moving_mean_initializer": {"config": {}, "class_name": "Zeros"}, "gamma_initializer": {"config": {}, "class_name": "Ones"}, "momentum": 0.99, "scale": true, "gamma_constraint": null, "axis": -1, "name": "batch_normalization_5", "gamma_regularizer": null, "moving_variance_initializer": {"config": {}, "class_name": "Ones"}, "beta_regularizer": null, "beta_initializer": {"config": {}, "class_name": "Zeros"}, "epsilon": 0.001}, "class_name": "BatchNormalization", "name": "batch_normalization_5", "inbound_nodes": [[["separable_conv2d_2", 0, 0, {}]]]}, {"config": {"padding": "same", "data_format": "channels_last", "trainable": true, "use_bias": false, "filters": 16, "bias_regularizer": null, "strides": [2, 2], "kernel_size": [1, 1], "bias_constraint": null, "name": "conv2d_3", "activity_regularizer": null, "dilation_rate": [1, 1], "bias_initializer": {"config": {}, "class_name": "Zeros"}, "activation": "linear", "kernel_initializer": {"config": {"seed": null, "scale": 1.0, "mode": "fan_avg", "distribution": "uniform"}, "class_name": "VarianceScaling"}, "kernel_constraint": null, "kernel_regularizer": null}, "class_name": "Conv2D", "name": "conv2d_3", "inbound_nodes": [[["activation_2", 0, 0, {}]]]}, {"config": {"padding": "same", "data_format": "channels_last", "name": "max_pooling2d_1", "trainable": true, "strides": [2, 2], "pool_size": [3, 3]}, "class_name": "MaxPooling2D", "name": "max_pooling2d_1", "inbound_nodes": [[["batch_normalization_5", 0, 0, {}]]]}, {"config": {"trainable": true, "beta_constraint": null, "center": true, "moving_mean_initializer": {"config": {}, "class_name": "Zeros"}, "gamma_initializer": {"config": {}, "class_name": "Ones"}, "momentum": 0.99, "scale": true, "gamma_constraint": null, "axis": -1, "name": "batch_normalization_3", "gamma_regularizer": null, "moving_variance_initializer": {"config": {}, "class_name": "Ones"}, "beta_regularizer": null, "beta_initializer": {"config": {}, "class_name": "Zeros"}, "epsilon": 0.001}, "class_name": "BatchNormalization", "name": "batch_normalization_3", "inbound_nodes": [[["conv2d_3", 0, 0, {}]]]}, {"config": {"name": "add_1", "trainable": true}, "class_name": "Add", "name": "add_1", "inbound_nodes": [[["max_pooling2d_1", 0, 0, {}], ["batch_normalization_3", 0, 0, {}]]]}, {"config": {"strides": [1, 1], "use_bias": false, "data_format": "channels_last", "trainable": true, "padding": "same", "filters": 32, "bias_regularizer": null, "activity_regularizer": null, "pointwise_regularizer": null, "kernel_size": [3, 3], "bias_constraint": null, "activation": "linear", "depthwise_constraint": null, "depthwise_regularizer": null, "dilation_rate": [1, 1], "bias_initializer": {"config": {}, "class_name": "Zeros"}, "name": "separable_conv2d_3", "depthwise_initializer": {"config": {"seed": null, "scale": 1.0, "mode": "fan_avg", "distribution": "uniform"}, "class_name": "VarianceScaling"}, "pointwise_constraint": null, "depth_multiplier": 1, "pointwise_initializer": {"config": {"seed": null, "scale": 1.0, "mode": "fan_avg", "distribution": "uniform"}, "class_name": "VarianceScaling"}}, "class_name": "SeparableConv2D", "name": "separable_conv2d_3", "inbound_nodes": [[["add_1", 0, 0, {}]]]}, {"config": {"trainable": true, "beta_constraint": null, "center": true, "moving_mean_initializer": {"config": {}, "class_name": "Zeros"}, "gamma_initializer": {"config": {}, "class_name": "Ones"}, "momentum": 0.99, "scale": true, "gamma_constraint": null, "axis": -1, "name": "batch_normalization_7", "gamma_regularizer": null, "moving_variance_initializer": {"config": {}, "class_name": "Ones"}, "beta_regularizer": null, "beta_initializer": {"config": {}, "class_name": "Zeros"}, "epsilon": 0.001}, "class_name": "BatchNormalization", "name": "batch_normalization_7", "inbound_nodes": [[["separable_conv2d_3", 0, 0, {}]]]}, {"config": {"name": "activation_4", "activation": "relu", "trainable": true}, "class_name": "Activation", "name": "activation_4", "inbound_nodes": [[["batch_normalization_7", 0, 0, {}]]]}, {"config": {"strides": [1, 1], "use_bias": false, "data_format": "channels_last", "trainable": true, "padding": "same", "filters": 32, "bias_regularizer": null, "activity_regularizer": null, "pointwise_regularizer": null, "kernel_size": [3, 3], "bias_constraint": null, "activation": "linear", "depthwise_constraint": null, "depthwise_regularizer": null, "dilation_rate": [1, 1], "bias_initializer": {"config": {}, "class_name": "Zeros"}, "name": "separable_conv2d_4", "depthwise_initializer": {"config": {"seed": null, "scale": 1.0, "mode": "fan_avg", "distribution": "uniform"}, "class_name": "VarianceScaling"}, "pointwise_constraint": null, "depth_multiplier": 1, "pointwise_initializer": {"config": {"seed": null, "scale": 1.0, "mode": "fan_avg", "distribution": "uniform"}, "class_name": "VarianceScaling"}}, "class_name": "SeparableConv2D", "name": "separable_conv2d_4", "inbound_nodes": [[["activation_4", 0, 0, {}]]]}, {"config": {"trainable": true, "beta_constraint": null, "center": true, "moving_mean_initializer": {"config": {}, "class_name": "Zeros"}, "gamma_initializer": {"config": {}, "class_name": "Ones"}, "momentum": 0.99, "scale": true, "gamma_constraint": null, "axis": -1, "name": "batch_normalization_8", "gamma_regularizer": null, "moving_variance_initializer": {"config": {}, "class_name": "Ones"}, "beta_regularizer": null, "beta_initializer": {"config": {}, "class_name": "Zeros"}, "epsilon": 0.001}, "class_name": "BatchNormalization", "name": "batch_normalization_8", "inbound_nodes": [[["separable_conv2d_4", 0, 0, {}]]]}, {"config": {"padding": "same", "data_format": "channels_last", "trainable": true, "use_bias": false, "filters": 32, "bias_regularizer": null, "strides": [2, 2], "kernel_size": [1, 1], "bias_constraint": null, "name": "conv2d_4", "activity_regularizer": null, "dilation_rate": [1, 1], "bias_initializer": {"config": {}, "class_name": "Zeros"}, "activation": "linear", "kernel_initializer": {"config": {"seed": null, "scale": 1.0, "mode": "fan_avg", "distribution": "uniform"}, "class_name": "VarianceScaling"}, "kernel_constraint": null, "kernel_regularizer": null}, "class_name": "Conv2D", "name": "conv2d_4", "inbound_nodes": [[["add_1", 0, 0, {}]]]}, {"config": {"padding": "same", "data_format": "channels_last", "name": "max_pooling2d_2", "trainable": true, "strides": [2, 2], "pool_size": [3, 3]}, "class_name": "MaxPooling2D", "name": "max_pooling2d_2", "inbound_nodes": [[["batch_normalization_8", 0, 0, {}]]]}, {"config": {"trainable": true, "beta_constraint": null, "center": true, "moving_mean_initializer": {"config": {}, "class_name": "Zeros"}, "gamma_initializer": {"config": {}, "class_name": "Ones"}, "momentum": 0.99, "scale": true, "gamma_constraint": null, "axis": -1, "name": "batch_normalization_6", "gamma_regularizer": null, "moving_variance_initializer": {"config": {}, "class_name": "Ones"}, "beta_regularizer": null, "beta_initializer": {"config": {}, "class_name": "Zeros"}, "epsilon": 0.001}, "class_name": "BatchNormalization", "name": "batch_normalization_6", "inbound_nodes": [[["conv2d_4", 0, 0, {}]]]}, {"config": {"name": "add_2", "trainable": true}, "class_name": "Add", "name": "add_2", "inbound_nodes": [[["max_pooling2d_2", 0, 0, {}], ["batch_normalization_6", 0, 0, {}]]]}, {"config": {"strides": [1, 1], "use_bias": false, "data_format": "channels_last", "trainable": true, "padding": "same", "filters": 64, "bias_regularizer": null, "activity_regularizer": null, "pointwise_regularizer": null, "kernel_size": [3, 3], "bias_constraint": null, "activation": "linear", "depthwise_constraint": null, "depthwise_regularizer": null, "dilation_rate": [1, 1], "bias_initializer": {"config": {}, "class_name": "Zeros"}, "name": "separable_conv2d_5", "depthwise_initializer": {"config": {"seed": null, "scale": 1.0, "mode": "fan_avg", "distribution": "uniform"}, "class_name": "VarianceScaling"}, "pointwise_constraint": null, "depth_multiplier": 1, "pointwise_initializer": {"config": {"seed": null, "scale": 1.0, "mode": "fan_avg", "distribution": "uniform"}, "class_name": "VarianceScaling"}}, "class_name": "SeparableConv2D", "name": "separable_conv2d_5", "inbound_nodes": [[["add_2", 0, 0, {}]]]}, {"config": {"trainable": true, "beta_constraint": null, "center": true, "moving_mean_initializer": {"config": {}, "class_name": "Zeros"}, "gamma_initializer": {"config": {}, "class_name": "Ones"}, "momentum": 0.99, "scale": true, "gamma_constraint": null, "axis": -1, "name": "batch_normalization_10", "gamma_regularizer": null, "moving_variance_initializer": {"config": {}, "class_name": "Ones"}, "beta_regularizer": null, "beta_initializer": {"config": {}, "class_name": "Zeros"}, "epsilon": 0.001}, "class_name": "BatchNormalization", "name": "batch_normalization_10", "inbound_nodes": [[["separable_conv2d_5", 0, 0, {}]]]}, {"config": {"name": "activation_5", "activation": "relu", "trainable": true}, "class_name": "Activation", "name": "activation_5", "inbound_nodes": [[["batch_normalization_10", 0, 0, {}]]]}, {"config": {"strides": [1, 1], "use_bias": false, "data_format": "channels_last", "trainable": true, "padding": "same", "filters": 64, "bias_regularizer": null, "activity_regularizer": null, "pointwise_regularizer": null, "kernel_size": [3, 3], "bias_constraint": null, "activation": "linear", "depthwise_constraint": null, "depthwise_regularizer": null, "dilation_rate": [1, 1], "bias_initializer": {"config": {}, "class_name": "Zeros"}, "name": "separable_conv2d_6", "depthwise_initializer": {"config": {"seed": null, "scale": 1.0, "mode": "fan_avg", "distribution": "uniform"}, "class_name": "VarianceScaling"}, "pointwise_constraint": null, "depth_multiplier": 1, "pointwise_initializer": {"config": {"seed": null, "scale": 1.0, "mode": "fan_avg", "distribution": "uniform"}, "class_name": "VarianceScaling"}}, "class_name": "SeparableConv2D", "name": "separable_conv2d_6", "inbound_nodes": [[["activation_5", 0, 0, {}]]]}, {"config": {"trainable": true, "beta_constraint": null, "center": true, "moving_mean_initializer": {"config": {}, "class_name": "Zeros"}, "gamma_initializer": {"config": {}, "class_name": "Ones"}, "momentum": 0.99, "scale": true, "gamma_constraint": null, "axis": -1, "name": "batch_normalization_11", "gamma_regularizer": null, "moving_variance_initializer": {"config": {}, "class_name": "Ones"}, "beta_regularizer": null, "beta_initializer": {"config": {}, "class_name": "Zeros"}, "epsilon": 0.001}, "class_name": "BatchNormalization", "name": "batch_normalization_11", "inbound_nodes": [[["separable_conv2d_6", 0, 0, {}]]]}, {"config": {"padding": "same", "data_format": "channels_last", "trainable": true, "use_bias": false, "filters": 64, "bias_regularizer": null, "strides": [2, 2], "kernel_size": [1, 1], "bias_constraint": null, "name": "conv2d_5", "activity_regularizer": null, "dilation_rate": [1, 1], "bias_initializer": {"config": {}, "class_name": "Zeros"}, "activation": "linear", "kernel_initializer": {"config": {"seed": null, "scale": 1.0, "mode": "fan_avg", "distribution": "uniform"}, "class_name": "VarianceScaling"}, "kernel_constraint": null, "kernel_regularizer": null}, "class_name": "Conv2D", "name": "conv2d_5", "inbound_nodes": [[["add_2", 0, 0, {}]]]}, {"config": {"padding": "same", "data_format": "channels_last", "name": "max_pooling2d_3", "trainable": true, "strides": [2, 2], "pool_size": [3, 3]}, "class_name": "MaxPooling2D", "name": "max_pooling2d_3", "inbound_nodes": [[["batch_normalization_11", 0, 0, {}]]]}, {"config": {"trainable": true, "beta_constraint": null, "center": true, "moving_mean_initializer": {"config": {}, "class_name": "Zeros"}, "gamma_initializer": {"config": {}, "class_name": "Ones"}, "momentum": 0.99, "scale": true, "gamma_constraint": null, "axis": -1, "name": "batch_normalization_9", "gamma_regularizer": null, "moving_variance_initializer": {"config": {}, "class_name": "Ones"}, "beta_regularizer": null, "beta_initializer": {"config": {}, "class_name": "Zeros"}, "epsilon": 0.001}, "class_name": "BatchNormalization", "name": "batch_normalization_9", "inbound_nodes": [[["conv2d_5", 0, 0, {}]]]}, {"config": {"name": "add_3", "trainable": true}, "class_name": "Add", "name": "add_3", "inbound_nodes": [[["max_pooling2d_3", 0, 0, {}], ["batch_normalization_9", 0, 0, {}]]]}, {"config": {"strides": [1, 1], "use_bias": false, "data_format": "channels_last", "trainable": true, "padding": "same", "filters": 128, "bias_regularizer": null, "activity_regularizer": null, "pointwise_regularizer": null, "kernel_size": [3, 3], "bias_constraint": null, "activation": "linear", "depthwise_constraint": null, "depthwise_regularizer": null, "dilation_rate": [1, 1], "bias_initializer": {"config": {}, "class_name": "Zeros"}, "name": "separable_conv2d_7", "depthwise_initializer": {"config": {"seed": null, "scale": 1.0, "mode": "fan_avg", "distribution": "uniform"}, "class_name": "VarianceScaling"}, "pointwise_constraint": null, "depth_multiplier": 1, "pointwise_initializer": {"config": {"seed": null, "scale": 1.0, "mode": "fan_avg", "distribution": "uniform"}, "class_name": "VarianceScaling"}}, "class_name": "SeparableConv2D", "name": "separable_conv2d_7", "inbound_nodes": [[["add_3", 0, 0, {}]]]}, {"config": {"trainable": true, "beta_constraint": null, "center": true, "moving_mean_initializer": {"config": {}, "class_name": "Zeros"}, "gamma_initializer": {"config": {}, "class_name": "Ones"}, "momentum": 0.99, "scale": true, "gamma_constraint": null, "axis": -1, "name": "batch_normalization_13", "gamma_regularizer": null, "moving_variance_initializer": {"config": {}, "class_name": "Ones"}, "beta_regularizer": null, "beta_initializer": {"config": {}, "class_name": "Zeros"}, "epsilon": 0.001}, "class_name": "BatchNormalization", "name": "batch_normalization_13", "inbound_nodes": [[["separable_conv2d_7", 0, 0, {}]]]}, {"config": {"name": "activation_6", "activation": "relu", "trainable": true}, "class_name": "Activation", "name": "activation_6", "inbound_nodes": [[["batch_normalization_13", 0, 0, {}]]]}, {"config": {"strides": [1, 1], "use_bias": false, "data_format": "channels_last", "trainable": true, "padding": "same", "filters": 128, "bias_regularizer": null, "activity_regularizer": null, "pointwise_regularizer": null, "kernel_size": [3, 3], "bias_constraint": null, "activation": "linear", "depthwise_constraint": null, "depthwise_regularizer": null, "dilation_rate": [1, 1], "bias_initializer": {"config": {}, "class_name": "Zeros"}, "name": "separable_conv2d_8", "depthwise_initializer": {"config": {"seed": null, "scale": 1.0, "mode": "fan_avg", "distribution": "uniform"}, "class_name": "VarianceScaling"}, "pointwise_constraint": null, "depth_multiplier": 1, "pointwise_initializer": {"config": {"seed": null, "scale": 1.0, "mode": "fan_avg", "distribution": "uniform"}, "class_name": "VarianceScaling"}}, "class_name": "SeparableConv2D", "name": "separable_conv2d_8", "inbound_nodes": [[["activation_6", 0, 0, {}]]]}, {"config": {"trainable": true, "beta_constraint": null, "center": true, "moving_mean_initializer": {"config": {}, "class_name": "Zeros"}, "gamma_initializer": {"config": {}, "class_name": "Ones"}, "momentum": 0.99, "scale": true, "gamma_constraint": null, "axis": -1, "name": "batch_normalization_14", "gamma_regularizer": null, "moving_variance_initializer": {"config": {}, "class_name": "Ones"}, "beta_regularizer": null, "beta_initializer": {"config": {}, "class_name": "Zeros"}, "epsilon": 0.001}, "class_name": "BatchNormalization", "name": "batch_normalization_14", "inbound_nodes": [[["separable_conv2d_8", 0, 0, {}]]]}, {"config": {"padding": "same", "data_format": "channels_last", "trainable": true, "use_bias": false, "filters": 128, "bias_regularizer": null, "strides": [2, 2], "kernel_size": [1, 1], "bias_constraint": null, "name": "conv2d_6", "activity_regularizer": null, "dilation_rate": [1, 1], "bias_initializer": {"config": {}, "class_name": "Zeros"}, "activation": "linear", "kernel_initializer": {"config": {"seed": null, "scale": 1.0, "mode": "fan_avg", "distribution": "uniform"}, "class_name": "VarianceScaling"}, "kernel_constraint": null, "kernel_regularizer": null}, "class_name": "Conv2D", "name": "conv2d_6", "inbound_nodes": [[["add_3", 0, 0, {}]]]}, {"config": {"padding": "same", "data_format": "channels_last", "name": "max_pooling2d_4", "trainable": true, "strides": [2, 2], "pool_size": [3, 3]}, "class_name": "MaxPooling2D", "name": "max_pooling2d_4", "inbound_nodes": [[["batch_normalization_14", 0, 0, {}]]]}, {"config": {"trainable": true, "beta_constraint": null, "center": true, "moving_mean_initializer": {"config": {}, "class_name": "Zeros"}, "gamma_initializer": {"config": {}, "class_name": "Ones"}, "momentum": 0.99, "scale": true, "gamma_constraint": null, "axis": -1, "name": "batch_normalization_12", "gamma_regularizer": null, "moving_variance_initializer": {"config": {}, "class_name": "Ones"}, "beta_regularizer": null, "beta_initializer": {"config": {}, "class_name": "Zeros"}, "epsilon": 0.001}, "class_name": "BatchNormalization", "name": "batch_normalization_12", "inbound_nodes": [[["conv2d_6", 0, 0, {}]]]}, {"config": {"name": "add_4", "trainable": true}, "class_name": "Add", "name": "add_4", "inbound_nodes": [[["max_pooling2d_4", 0, 0, {}], ["batch_normalization_12", 0, 0, {}]]]}, {"config": {"padding": "same", "data_format": "channels_last", "trainable": true, "use_bias": true, "filters": 7, "bias_regularizer": null, "strides": [1, 1], "kernel_size": [3, 3], "bias_constraint": null, "name": "conv2d_7", "activity_regularizer": null, "dilation_rate": [1, 1], "bias_initializer": {"config": {}, "class_name": "Zeros"}, "activation": "linear", "kernel_initializer": {"config": {"seed": null, "scale": 1.0, "mode": "fan_avg", "distribution": "uniform"}, "class_name": "VarianceScaling"}, "kernel_constraint": null, "kernel_regularizer": null}, "class_name": "Conv2D", "name": "conv2d_7", "inbound_nodes": [[["add_4", 0, 0, {}]]]}, {"config": {"data_format": "channels_last", "name": "global_average_pooling2d_1", "trainable": true}, "class_name": "GlobalAveragePooling2D", "name": "global_average_pooling2d_1", "inbound_nodes": [[["conv2d_7", 0, 0, {}]]]}, {"config": {"name": "predictions", "activation": "softmax", "trainable": true}, "class_name": "Activation", "name": "predictions", "inbound_nodes": [[["global_average_pooling2d_1", 0, 0, {}]]]}], "input_layers": [["input_1", 0, 0]], "output_layers": [["predictions", 0, 0]]}, "class_name": "Model", "keras_version": "2.1.3", "backend": "tensorflow"}