{"config": {"name": "model_1", "layers": [{"inbound_nodes": [], "name": "input_1", "config": {"dtype": "float32", "sparse": false, "batch_input_shape": [null, 48, 48, 1], "name": "input_1"}, "class_name": "InputLayer"}, {"inbound_nodes": [[["input_1", 0, 0, {}]]], "name": "conv2d_1", "config": {"use_bias": false, "dilation_rate": [1, 1], "trainable": true, "activity_regularizer": null, "kernel_regularizer": {"config": {"l1": 0.0, "l2": 0.009999999776482582}, "class_name": "L1L2"}, "filters": 8, "kernel_initializer": {"config": {"mode": "fan_avg", "distribution": "uniform", "seed": null, "scale": 1.0}, "class_name": "VarianceScaling"}, "data_format": "channels_last", "kernel_size": [3, 3], "bias_regularizer": null, "strides": [1, 1], "padding": "valid", "name": "conv2d_1", "kernel_constraint": null, "activation": "linear", "bias_constraint": null, "bias_initializer": {"config": {}, "class_name": "Zeros"}}, "class_name": "Conv2D"}, {"inbound_nodes": [[["conv2d_1", 0, 0, {}]]], "name": "batch_normalization_1", "config": {"gamma_constraint": null, "beta_initializer": {"config": {}, "class_name": "Zeros"}, "epsilon": 0.001, "center": true, "momentum": 0.99, "trainable": true, "gamma_regularizer": null, "moving_mean_initializer": {"config": {}, "class_name": "Zeros"}, "moving_variance_initializer": {"config": {}, "class_name": "Ones"}, "beta_regularizer": null, "scale": true, "axis": -1, "name": "batch_normalization_1", "gamma_initializer": {"config": {}, "class_name": "Ones"}, "beta_constraint": null}, "class_name": "BatchNormalization"}, {"inbound_nodes": [[["batch_normalization_1", 0, 0, {}]]], "name": "activation_1", "config": {"trainable": true, "name": "activation_1", "activation": "relu"}, "class_name": "Activation"}, {"inbound_nodes": [[["activation_1", 0, 0, {}]]], "name": "conv2d_2", "config": {"use_bias": false, "dilation_rate": [1, 1], "trainable": true, "activity_regularizer": null, "kernel_regularizer": {"config": {"l1": 0.0, "l2": 0.009999999776482582}, "class_name": "L1L2"}, "filters": 8, "kernel_initializer": {"config": {"mode": "fan_avg", "distribution": "uniform", "seed": null, "scale": 1.0}, "class_name": "VarianceScaling"}, "data_format": "channels_last", "kernel_size": [3, 3], "bias_regularizer": null, "strides": [1, 1], "padding": "valid", "name": "conv2d_2", "kernel_constraint": null, "activation": "linear", "bias_constraint": null, "bias_initializer": {"config": {}, "class_name": "Zeros"}}, "class_name": "Conv2D"}, {"inbound_nodes": [[["conv2d_2", 0, 0, {}]]], "name": "batch_normalization_2", "config": {"gamma_constraint": null, "beta_initializer": {"config": {}, "class_name": "Zeros"}, "epsilon": 0.001, "center": true, "momentum": 0.99, "trainable": true, "gamma_regularizer": null, "moving_mean_initializer": {"config": {}, "class_name": "Zeros"}, "moving_variance_initializer": {"config": {}, "class_name": "Ones"}, "beta_regularizer": null, "scale": true, "axis": -1, "name": "batch_normalization_2", "gamma_initializer": {"config": {}, "class_name": "Ones"}, "beta_constraint": null}, "class_name": "BatchNormalization"}, {"inbound_nodes": [[["batch_normalization_2", 0, 0, {}]]], "name": "activation_2", "config": {"trainable": true, "name": "activation_2", "activation": "relu"}, "class_name": "Activation"}, {"inbound_nodes": [[["activation_2", 0, 0, {}]]], "name": "separable_conv2d_1", "config": {"use_bias": false, "depthwise_initializer": {"config": {"mode": "fan_avg", "distribution": "uniform", "seed": null, "scale": 1.0}, "class_name": "VarianceScaling"}, "depth_multiplier": 1, "dilation_rate": [1, 1], "pointwise_regularizer": null, "trainable": true, "activity_regularizer": null, "data_format": "channels_last", "filters": 16, "depthwise_constraint": null, "bias_initializer": {"config": {}, "class_name": "Zeros"}, "pointwise_initializer": {"config": {"mode": "fan_avg", "distribution": "uniform", "seed": null, "scale": 1.0}, "class_name": "VarianceScaling"}, "bias_regularizer": null, "kernel_size": [3, 3], "depthwise_regularizer": null, "pointwise_constraint": null, "padding": "same", "name": "separable_conv2d_1", "activation": "linear", "bias_constraint": null, "strides": [1, 1]}, "class_name": "SeparableConv2D"}, {"inbound_nodes": [[["separable_conv2d_1", 0, 0, {}]]], "name": "batch_normalization_4", "config": {"gamma_constraint": null, "beta_initializer": {"config": {}, "class_name": "Zeros"}, "epsilon": 0.001, "center": true, "momentum": 0.99, "trainable": true, "gamma_regularizer": null, "moving_mean_initializer": {"config": {}, "class_name": "Zeros"}, "moving_variance_initializer": {"config": {}, "class_name": "Ones"}, "beta_regularizer": null, "scale": true, "axis": -1, "name": "batch_normalization_4", "gamma_initializer": {"config": {}, "class_name": "Ones"}, "beta_constraint": null}, "class_name": "BatchNormalization"}, {"inbound_nodes": [[["batch_normalization_4", 0, 0, {}]]], "name": "activation_3", "config": {"trainable": true, "name": "activation_3", "activation": "relu"}, "class_name": "Activation"}, {"inbound_nodes": [[["activation_3", 0, 0, {}]]], "name": "separable_conv2d_2", "config": {"use_bias": false, "depthwise_initializer": {"config": {"mode": "fan_avg", "distribution": "uniform", "seed": null, "scale": 1.0}, "class_name": "VarianceScaling"}, "depth_multiplier": 1, "dilation_rate": [1, 1], "pointwise_regularizer": null, "trainable": true, "activity_regularizer": null, "data_format": "channels_last", "filters": 16, "depthwise_constraint": null, "bias_initializer": {"config": {}, "class_name": "Zeros"}, "pointwise_initializer": {"config": {"mode": "fan_avg", "distribution": "uniform", "seed": null, "scale": 1.0}, "class_name": "VarianceScaling"}, "bias_regularizer": null, "kernel_size": [3, 3], "depthwise_regularizer": null, "pointwise_constraint": null, "padding": "same", "name": "separable_conv2d_2", "activation": "linear", "bias_constraint": null, "strides": [1, 1]}, "class_name": "SeparableConv2D"}, {"inbound_nodes": [[["separable_conv2d_2", 0, 0, {}]]], "name": "batch_normalization_5", "config": {"gamma_constraint": null, "beta_initializer": {"config": {}, "class_name": "Zeros"}, "epsilon": 0.001, "center": true, "momentum": 0.99, "trainable": true, "gamma_regularizer": null, "moving_mean_initializer": {"config": {}, "class_name": "Zeros"}, "moving_variance_initializer": {"config": {}, "class_name": "Ones"}, "beta_regularizer": null, "scale": true, "axis": -1, "name": "batch_normalization_5", "gamma_initializer": {"config": {}, "class_name": "Ones"}, "beta_constraint": null}, "class_name": "BatchNormalization"}, {"inbound_nodes": [[["activation_2", 0, 0, {}]]], "name": "conv2d_3", "config": {"use_bias": false, "dilation_rate": [1, 1], "trainable": true, "activity_regularizer": null, "kernel_regularizer": null, "filters": 16, "kernel_initializer": {"config": {"mode": "fan_avg", "distribution": "uniform", "seed": null, "scale": 1.0}, "class_name": "VarianceScaling"}, "data_format": "channels_last", "kernel_size": [1, 1], "bias_regularizer": null, "strides": [2, 2], "padding": "same", "name": "conv2d_3", "kernel_constraint": null, "activation": "linear", "bias_constraint": null, "bias_initializer": {"config": {}, "class_name": "Zeros"}}, "class_name": "Conv2D"}, {"inbound_nodes": [[["batch_normalization_5", 0, 0, {}]]], "name": "max_pooling2d_1", "config": {"trainable": true, "strides": [2, 2], "pool_size": [3, 3], "padding": "same", "name": "max_pooling2d_1", "data_format": "channels_last"}, "class_name": "MaxPooling2D"}, {"inbound_nodes": [[["conv2d_3", 0, 0, {}]]], "name": "batch_normalization_3", "config": {"gamma_constraint": null, "beta_initializer": {"config": {}, "class_name": "Zeros"}, "epsilon": 0.001, "center": true, "momentum": 0.99, "trainable": true, "gamma_regularizer": null, "moving_mean_initializer": {"config": {}, "class_name": "Zeros"}, "moving_variance_initializer": {"config": {}, "class_name": "Ones"}, "beta_regularizer": null, "scale": true, "axis": -1, "name": "batch_normalization_3", "gamma_initializer": {"config": {}, "class_name": "Ones"}, "beta_constraint": null}, "class_name": "BatchNormalization"}, {"inbound_nodes": [[["max_pooling2d_1", 0, 0, {}], ["batch_normalization_3", 0, 0, {}]]], "name": "add_1", "config": {"trainable": true, "name": "add_1"}, "class_name": "Add"}, {"inbound_nodes": [[["add_1", 0, 0, {}]]], "name": "separable_conv2d_3", "config": {"use_bias": false, "depthwise_initializer": {"config": {"mode": "fan_avg", "distribution": "uniform", "seed": null, "scale": 1.0}, "class_name": "VarianceScaling"}, "depth_multiplier": 1, "dilation_rate": [1, 1], "pointwise_regularizer": null, "trainable": true, "activity_regularizer": null, "data_format": "channels_last", "filters": 32, "depthwise_constraint": null, "bias_initializer": {"config": {}, "class_name": "Zeros"}, "pointwise_initializer": {"config": {"mode": "fan_avg", "distribution": "uniform", "seed": null, "scale": 1.0}, "class_name": "VarianceScaling"}, "bias_regularizer": null, "kernel_size": [3, 3], "depthwise_regularizer": null, "pointwise_constraint": null, "padding": "same", "name": "separable_conv2d_3", "activation": "linear", "bias_constraint": null, "strides": [1, 1]}, "class_name": "SeparableConv2D"}, {"inbound_nodes": [[["separable_conv2d_3", 0, 0, {}]]], "name": "batch_normalization_7", "config": {"gamma_constraint": null, "beta_initializer": {"config": {}, "class_name": "Zeros"}, "epsilon": 0.001, "center": true, "momentum": 0.99, "trainable": true, "gamma_regularizer": null, "moving_mean_initializer": {"config": {}, "class_name": "Zeros"}, "moving_variance_initializer": {"config": {}, "class_name": "Ones"}, "beta_regularizer": null, "scale": true, "axis": -1, "name": "batch_normalization_7", "gamma_initializer": {"config": {}, "class_name": "Ones"}, "beta_constraint": null}, "class_name": "BatchNormalization"}, {"inbound_nodes": [[["batch_normalization_7", 0, 0, {}]]], "name": "activation_4", "config": {"trainable": true, "name": "activation_4", "activation": "relu"}, "class_name": "Activation"}, {"inbound_nodes": [[["activation_4", 0, 0, {}]]], "name": "separable_conv2d_4", "config": {"use_bias": false, "depthwise_initializer": {"config": {"mode": "fan_avg", "distribution": "uniform", "seed": null, "scale": 1.0}, "class_name": "VarianceScaling"}, "depth_multiplier": 1, "dilation_rate": [1, 1], "pointwise_regularizer": null, "trainable": true, "activity_regularizer": null, "data_format": "channels_last", "filters": 32, "depthwise_constraint": null, "bias_initializer": {"config": {}, "class_name": "Zeros"}, "pointwise_initializer": {"config": {"mode": "fan_avg", "distribution": "uniform", "seed": null, "scale": 1.0}, "class_name": "VarianceScaling"}, "bias_regularizer": null, "kernel_size": [3, 3], "depthwise_regularizer": null, "pointwise_constraint": null, "padding": "same", "name": "separable_conv2d_4", "activation": "linear", "bias_constraint": null, "strides": [1, 1]}, "class_name": "SeparableConv2D"}, {"inbound_nodes": [[["separable_conv2d_4", 0, 0, {}]]], "name": "batch_normalization_8", "config": {"gamma_constraint": null, "beta_initializer": {"config": {}, "class_name": "Zeros"}, "epsilon": 0.001, "center": true, "momentum": 0.99, "trainable": true, "gamma_regularizer": null, "moving_mean_initializer": {"config": {}, "class_name": "Zeros"}, "moving_variance_initializer": {"config": {}, "class_name": "Ones"}, "beta_regularizer": null, "scale": true, "axis": -1, "name": "batch_normalization_8", "gamma_initializer": {"config": {}, "class_name": "Ones"}, "beta_constraint": null}, "class_name": "BatchNormalization"}, {"inbound_nodes": [[["add_1", 0, 0, {}]]], "name": "conv2d_4", "config": {"use_bias": false, "dilation_rate": [1, 1], "trainable": true, "activity_regularizer": null, "kernel_regularizer": null, "filters": 32, "kernel_initializer": {"config": {"mode": "fan_avg", "distribution": "uniform", "seed": null, "scale": 1.0}, "class_name": "VarianceScaling"}, "data_format": "channels_last", "kernel_size": [1, 1], "bias_regularizer": null, "strides": [2, 2], "padding": "same", "name": "conv2d_4", "kernel_constraint": null, "activation": "linear", "bias_constraint": null, "bias_initializer": {"config": {}, "class_name": "Zeros"}}, "class_name": "Conv2D"}, {"inbound_nodes": [[["batch_normalization_8", 0, 0, {}]]], "name": "max_pooling2d_2", "config": {"trainable": true, "strides": [2, 2], "pool_size": [3, 3], "padding": "same", "name": "max_pooling2d_2", "data_format": "channels_last"}, "class_name": "MaxPooling2D"}, {"inbound_nodes": [[["conv2d_4", 0, 0, {}]]], "name": "batch_normalization_6", "config": {"gamma_constraint": null, "beta_initializer": {"config": {}, "class_name": "Zeros"}, "epsilon": 0.001, "center": true, "momentum": 0.99, "trainable": true, "gamma_regularizer": null, "moving_mean_initializer": {"config": {}, "class_name": "Zeros"}, "moving_variance_initializer": {"config": {}, "class_name": "Ones"}, "beta_regularizer": null, "scale": true, "axis": -1, "name": "batch_normalization_6", "gamma_initializer": {"config": {}, "class_name": "Ones"}, "beta_constraint": null}, "class_name": "BatchNormalization"}, {"inbound_nodes": [[["max_pooling2d_2", 0, 0, {}], ["batch_normalization_6", 0, 0, {}]]], "name": "add_2", "config": {"trainable": true, "name": "add_2"}, "class_name": "Add"}, {"inbound_nodes": [[["add_2", 0, 0, {}]]], "name": "separable_conv2d_5", "config": {"use_bias": false, "depthwise_initializer": {"config": {"mode": "fan_avg", "distribution": "uniform", "seed": null, "scale": 1.0}, "class_name": "VarianceScaling"}, "depth_multiplier": 1, "dilation_rate": [1, 1], "pointwise_regularizer": null, "trainable": true, "activity_regularizer": null, "data_format": "channels_last", "filters": 64, "depthwise_constraint": null, "bias_initializer": {"config": {}, "class_name": "Zeros"}, "pointwise_initializer": {"config": {"mode": "fan_avg", "distribution": "uniform", "seed": null, "scale": 1.0}, "class_name": "VarianceScaling"}, "bias_regularizer": null, "kernel_size": [3, 3], "depthwise_regularizer": null, "pointwise_constraint": null, "padding": "same", "name": "separable_conv2d_5", "activation": "linear", "bias_constraint": null, "strides": [1, 1]}, "class_name": "SeparableConv2D"}, {"inbound_nodes": [[["separable_conv2d_5", 0, 0, {}]]], "name": "batch_normalization_10", "config": {"gamma_constraint": null, "beta_initializer": {"config": {}, "class_name": "Zeros"}, "epsilon": 0.001, "center": true, "momentum": 0.99, "trainable": true, "gamma_regularizer": null, "moving_mean_initializer": {"config": {}, "class_name": "Zeros"}, "moving_variance_initializer": {"config": {}, "class_name": "Ones"}, "beta_regularizer": null, "scale": true, "axis": -1, "name": "batch_normalization_10", "gamma_initializer": {"config": {}, "class_name": "Ones"}, "beta_constraint": null}, "class_name": "BatchNormalization"}, {"inbound_nodes": [[["batch_normalization_10", 0, 0, {}]]], "name": "activation_5", "config": {"trainable": true, "name": "activation_5", "activation": "relu"}, "class_name": "Activation"}, {"inbound_nodes": [[["activation_5", 0, 0, {}]]], "name": "separable_conv2d_6", "config": {"use_bias": false, "depthwise_initializer": {"config": {"mode": "fan_avg", "distribution": "uniform", "seed": null, "scale": 1.0}, "class_name": "VarianceScaling"}, "depth_multiplier": 1, "dilation_rate": [1, 1], "pointwise_regularizer": null, "trainable": true, "activity_regularizer": null, "data_format": "channels_last", "filters": 64, "depthwise_constraint": null, "bias_initializer": {"config": {}, "class_name": "Zeros"}, "pointwise_initializer": {"config": {"mode": "fan_avg", "distribution": "uniform", "seed": null, "scale": 1.0}, "class_name": "VarianceScaling"}, "bias_regularizer": null, "kernel_size": [3, 3], "depthwise_regularizer": null, "pointwise_constraint": null, "padding": "same", "name": "separable_conv2d_6", "activation": "linear", "bias_constraint": null, "strides": [1, 1]}, "class_name": "SeparableConv2D"}, {"inbound_nodes": [[["separable_conv2d_6", 0, 0, {}]]], "name": "batch_normalization_11", "config": {"gamma_constraint": null, "beta_initializer": {"config": {}, "class_name": "Zeros"}, "epsilon": 0.001, "center": true, "momentum": 0.99, "trainable": true, "gamma_regularizer": null, "moving_mean_initializer": {"config": {}, "class_name": "Zeros"}, "moving_variance_initializer": {"config": {}, "class_name": "Ones"}, "beta_regularizer": null, "scale": true, "axis": -1, "name": "batch_normalization_11", "gamma_initializer": {"config": {}, "class_name": "Ones"}, "beta_constraint": null}, "class_name": "BatchNormalization"}, {"inbound_nodes": [[["add_2", 0, 0, {}]]], "name": "conv2d_5", "config": {"use_bias": false, "dilation_rate": [1, 1], "trainable": true, "activity_regularizer": null, "kernel_regularizer": null, "filters": 64, "kernel_initializer": {"config": {"mode": "fan_avg", "distribution": "uniform", "seed": null, "scale": 1.0}, "class_name": "VarianceScaling"}, "data_format": "channels_last", "kernel_size": [1, 1], "bias_regularizer": null, "strides": [2, 2], "padding": "same", "name": "conv2d_5", "kernel_constraint": null, "activation": "linear", "bias_constraint": null, "bias_initializer": {"config": {}, "class_name": "Zeros"}}, "class_name": "Conv2D"}, {"inbound_nodes": [[["batch_normalization_11", 0, 0, {}]]], "name": "max_pooling2d_3", "config": {"trainable": true, "strides": [2, 2], "pool_size": [3, 3], "padding": "same", "name": "max_pooling2d_3", "data_format": "channels_last"}, "class_name": "MaxPooling2D"}, {"inbound_nodes": [[["conv2d_5", 0, 0, {}]]], "name": "batch_normalization_9", "config": {"gamma_constraint": null, "beta_initializer": {"config": {}, "class_name": "Zeros"}, "epsilon": 0.001, "center": true, "momentum": 0.99, "trainable": true, "gamma_regularizer": null, "moving_mean_initializer": {"config": {}, "class_name": "Zeros"}, "moving_variance_initializer": {"config": {}, "class_name": "Ones"}, "beta_regularizer": null, "scale": true, "axis": -1, "name": "batch_normalization_9", "gamma_initializer": {"config": {}, "class_name": "Ones"}, "beta_constraint": null}, "class_name": "BatchNormalization"}, {"inbound_nodes": [[["max_pooling2d_3", 0, 0, {}], ["batch_normalization_9", 0, 0, {}]]], "name": "add_3", "config": {"trainable": true, "name": "add_3"}, "class_name": "Add"}, {"inbound_nodes": [[["add_3", 0, 0, {}]]], "name": "separable_conv2d_7", "config": {"use_bias": false, "depthwise_initializer": {"config": {"mode": "fan_avg", "distribution": "uniform", "seed": null, "scale": 1.0}, "class_name": "VarianceScaling"}, "depth_multiplier": 1, "dilation_rate": [1, 1], "pointwise_regularizer": null, "trainable": true, "activity_regularizer": null, "data_format": "channels_last", "filters": 128, "depthwise_constraint": null, "bias_initializer": {"config": {}, "class_name": "Zeros"}, "pointwise_initializer": {"config": {"mode": "fan_avg", "distribution": "uniform", "seed": null, "scale": 1.0}, "class_name": "VarianceScaling"}, "bias_regularizer": null, "kernel_size": [3, 3], "depthwise_regularizer": null, "pointwise_constraint": null, "padding": "same", "name": "separable_conv2d_7", "activation": "linear", "bias_constraint": null, "strides": [1, 1]}, "class_name": "SeparableConv2D"}, {"inbound_nodes": [[["separable_conv2d_7", 0, 0, {}]]], "name": "batch_normalization_13", "config": {"gamma_constraint": null, "beta_initializer": {"config": {}, "class_name": "Zeros"}, "epsilon": 0.001, "center": true, "momentum": 0.99, "trainable": true, "gamma_regularizer": null, "moving_mean_initializer": {"config": {}, "class_name": "Zeros"}, "moving_variance_initializer": {"config": {}, "class_name": "Ones"}, "beta_regularizer": null, "scale": true, "axis": -1, "name": "batch_normalization_13", "gamma_initializer": {"config": {}, "class_name": "Ones"}, "beta_constraint": null}, "class_name": "BatchNormalization"}, {"inbound_nodes": [[["batch_normalization_13", 0, 0, {}]]], "name": "activation_6", "config": {"trainable": true, "name": "activation_6", "activation": "relu"}, "class_name": "Activation"}, {"inbound_nodes": [[["activation_6", 0, 0, {}]]], "name": "separable_conv2d_8", "config": {"use_bias": false, "depthwise_initializer": {"config": {"mode": "fan_avg", "distribution": "uniform", "seed": null, "scale": 1.0}, "class_name": "VarianceScaling"}, "depth_multiplier": 1, "dilation_rate": [1, 1], "pointwise_regularizer": null, "trainable": true, "activity_regularizer": null, "data_format": "channels_last", "filters": 128, "depthwise_constraint": null, "bias_initializer": {"config": {}, "class_name": "Zeros"}, "pointwise_initializer": {"config": {"mode": "fan_avg", "distribution": "uniform", "seed": null, "scale": 1.0}, "class_name": "VarianceScaling"}, "bias_regularizer": null, "kernel_size": [3, 3], "depthwise_regularizer": null, "pointwise_constraint": null, "padding": "same", "name": "separable_conv2d_8", "activation": "linear", "bias_constraint": null, "strides": [1, 1]}, "class_name": "SeparableConv2D"}, {"inbound_nodes": [[["separable_conv2d_8", 0, 0, {}]]], "name": "batch_normalization_14", "config": {"gamma_constraint": null, "beta_initializer": {"config": {}, "class_name": "Zeros"}, "epsilon": 0.001, "center": true, "momentum": 0.99, "trainable": true, "gamma_regularizer": null, "moving_mean_initializer": {"config": {}, "class_name": "Zeros"}, "moving_variance_initializer": {"config": {}, "class_name": "Ones"}, "beta_regularizer": null, "scale": true, "axis": -1, "name": "batch_normalization_14", "gamma_initializer": {"config": {}, "class_name": "Ones"}, "beta_constraint": null}, "class_name": "BatchNormalization"}, {"inbound_nodes": [[["add_3", 0, 0, {}]]], "name": "conv2d_6", "config": {"use_bias": false, "dilation_rate": [1, 1], "trainable": true, "activity_regularizer": null, "kernel_regularizer": null, "filters": 128, "kernel_initializer": {"config": {"mode": "fan_avg", "distribution": "uniform", "seed": null, "scale": 1.0}, "class_name": "VarianceScaling"}, "data_format": "channels_last", "kernel_size": [1, 1], "bias_regularizer": null, "strides": [2, 2], "padding": "same", "name": "conv2d_6", "kernel_constraint": null, "activation": "linear", "bias_constraint": null, "bias_initializer": {"config": {}, "class_name": "Zeros"}}, "class_name": "Conv2D"}, {"inbound_nodes": [[["batch_normalization_14", 0, 0, {}]]], "name": "max_pooling2d_4", "config": {"trainable": true, "strides": [2, 2], "pool_size": [3, 3], "padding": "same", "name": "max_pooling2d_4", "data_format": "channels_last"}, "class_name": "MaxPooling2D"}, {"inbound_nodes": [[["conv2d_6", 0, 0, {}]]], "name": "batch_normalization_12", "config": {"gamma_constraint": null, "beta_initializer": {"config": {}, "class_name": "Zeros"}, "epsilon": 0.001, "center": true, "momentum": 0.99, "trainable": true, "gamma_regularizer": null, "moving_mean_initializer": {"config": {}, "class_name": "Zeros"}, "moving_variance_initializer": {"config": {}, "class_name": "Ones"}, "beta_regularizer": null, "scale": true, "axis": -1, "name": "batch_normalization_12", "gamma_initializer": {"config": {}, "class_name": "Ones"}, "beta_constraint": null}, "class_name": "BatchNormalization"}, {"inbound_nodes": [[["max_pooling2d_4", 0, 0, {}], ["batch_normalization_12", 0, 0, {}]]], "name": "add_4", "config": {"trainable": true, "name": "add_4"}, "class_name": "Add"}, {"inbound_nodes": [[["add_4", 0, 0, {}]]], "name": "conv2d_7", "config": {"use_bias": true, "dilation_rate": [1, 1], "trainable": true, "activity_regularizer": null, "kernel_regularizer": null, "filters": 7, "kernel_initializer": {"config": {"mode": "fan_avg", "distribution": "uniform", "seed": null, "scale": 1.0}, "class_name": "VarianceScaling"}, "data_format": "channels_last", "kernel_size": [3, 3], "bias_regularizer": null, "strides": [1, 1], "padding": "same", "name": "conv2d_7", "kernel_constraint": null, "activation": "linear", "bias_constraint": null, "bias_initializer": {"config": {}, "class_name": "Zeros"}}, "class_name": "Conv2D"}, {"inbound_nodes": [[["conv2d_7", 0, 0, {}]]], "name": "global_average_pooling2d_1", "config": {"trainable": true, "name": "global_average_pooling2d_1", "data_format": "channels_last"}, "class_name": "GlobalAveragePooling2D"}, {"inbound_nodes": [[["global_average_pooling2d_1", 0, 0, {}]]], "name": "predictions", "config": {"trainable": true, "name": "predictions", "activation": "softmax"}, "class_name": "Activation"}], "output_layers": [["predictions", 0, 0]], "input_layers": [["input_1", 0, 0]]}, "class_name": "Model", "backend": "tensorflow", "keras_version": "2.1.3"}